model_checkpoint.pth (torch, 36535 bytes, 3 tensors)

token_embedding_table.weight f4 [53, 53]
00000000: 918a cac0 8ada e0bf 9087 e3c0 4f59 92c0
00000010: bb13 96c0 6267 a2c0 75d9 d6c0 7d2d b4c0
00000020: 5847 d2c0 1767 e7c0 de81 b4c0 dcdf e2c0
00000030: a2c7 6c3f 2e57 0140 51b4 4fbf ef27 8e3e
00000040: bf0a 6d3f 0d33 98bf 9bb2 603e 4e58 803f
00000050: 4b37 dd3d 2d4c bfbf e866 2b3f ed92 5dbf
00000060: ed25 07be 351e 233e eadf 3a3f 7358 2a3d
00000070: 152c 68c0 4635 95bf ef28 683f f1b7 ec3e
00000080: 3394 7abf 0f48 a0be d669 cdbf 88f6 51c0
00000090: e1c0 f93e c222 d3bf d1ca d7c0 bd20 c6be
000000a0: 6787 d8c0 f326 77bf 190b c4c0 a820 a3bf
000000b0: 36d3 ffc0 1fce c0c0 274c 97c0 fcdb eabe
000000c0: df9e c1c0 c4c5 00c1 7dd6 bfc0 ca21 00c1
000000d0: 6ab1 d7c0 aba1 44bf a267 09bf 44a5 efc0
000000e0: aed8 92c0 0320 a1c0 a8fd 91c0 6544 b8c0
000000f0: e667 afc0 3e53 afc0 e414 a5c0 c3d5 cdc0
00000100: 265e bbc0 536e 8c3f 98d9 e83f 8986 84bf
00000110: 8ee3 9c3f 27b3 093f ec49 f7be e296 803f
00000120: 68d0 253f 706d 863f 4158 0fc0 1857 9a3f
00000130: 6dff b5bf ef66 f43e dedd 3ebb c08d 933f
00000140: 53c8 93be ce23 7dc0 6fa7 80bf 1cec 8b3f
00000150: a7be 073f 7f75 5bbf 0b18 103f 46bd 1ac0
00000160: bfa3 67c0 9ce6 7a3f bc90 2dbf c05a c1c0
00000170: 5f52 933e 8fed 14c1 84d5 d3be 619f 02c1
00000180: 9d2b a7bf a793 edc0 ea77 bbc0 8946 3dc0
00000190: 627a a4bd 9ed0 c1c0 d044 dbc0 731f ccc0
000001a0: b8ae e8c0 a4eb e5c0 440c 01c0 a84e 65bd
000001b0: cb25 3e3f e61a 8dbf 8d0c 78be 64c6 9fbf
000001c0: 0c3c 54be a58e b0be 49ff 113f 0b08 943c
000001d0: 8ba8 a9bf d2ae 5ebf f848 17be f79c 0bc0
000001e0: c05b 433e 6d0d b0ba a198 82bf 6971 c1bf
000001f0: ab54 0ebe 03a0 acbb 61dc afbf 900b 9cbf
00000200: b0a5 6bbd 73cc 05bf 294d 3cbf d609 60bf
00000210: 6bb5 edbd 7d27 33bf 4611 abbe b8b8 e03d
00000220: 33d0 153f ba69 32bf 612f 0abf e4b4 0cc0
00000230: f2aa 83be b1b9 fbbe 3269 13bf 9599 d4bf
00000240: 3a65 11c0 a53e e0bf 7853 8abe 0356 9dbd
00000250: 62c3 f1be b4c7 eabd 0e67 71be 9125 f23c
00000260: f9b5 67bf faee 1ebf 3c2a 82bf 8c5c 76bf
00000270: 8d56 0dbf 96f6 59c0 df99 3dc0 2083 afbe
00000280: 3a98 8a3f 9f92 353f e4e3 ffbe d565 1ebf
00000290: 61a1 193f bf19 e43f 3a66 b0bf 0318 603d
000002a0: 4f37 1f3e 136e b23f 3e0c 8d3c 9c0e 1c3f
000002b0: 2025 0cbf 86e0 98bf 4a88 dfbf 117e 70bf
000002c0: e779 21bf f757 d0bb e31e 5abf 43e7 7ebe
000002d0: 4a51 b7bf 9494 8fbf f6c7 af3d 9b23 a7bf
000002e0: aaa2 ddbf 06e6 73bf 28c0 d4bf c2ca ccbf
000002f0: 0460 b4bf 81da 9ebf 8cfe e7bf 9ae7 753d
00000300: 2c02 42bf 8553 fabf b8c6 77be 1ea4 35bf
00000310: afd7 d2bf 5a31 d2bf 59d6 93bf 0850 37be
00000320: 610a cbbf fe05 10c0 031a 5dbf ebaa ddbe
00000330: 9704 d9bf 7108 9f3e defd d1bf 7bff c7bf
00000340: 47c3 9cbe fdea a9bf 998b 65bf 1225 e8bf
00000350: e86c f0bf a2ba 8e3e b923 d03d 4e99 723d
00000360: af0e 93bf 1993 bdbf 4437 fa3e 8fc4 70bf
00000370: 3cbc 003f 3104 bfbf 7a19 88bf 1cd8 dbbe
00000380: f3e4 26bf 3f0b 21bf 07c3 f2be 50ab b6be
00000390: 48e5 1cbf 55ab 20c0 b4a7 40bf 1a58 e8bd
000003a0: 3fae 1e3e abaa 95bf 6ddb 683f b1c8 2cc0
000003b0: c0bb 98bf 5480 01bf 8094 f6be 5fc6 57bf
000003c0: 66c7 4cbf d997 6d3f bbaf 1abf 32a4 eebe
000003d0: 4e7b d5bf b10a d1be 8b07 b43e f391 88bf
000003e0: 19d4 b13d bd1e d93e c14b b83c 118a b9be
000003f0: 4305 323f 3abb e8bf 83c0 14bf 3821 f9bf
-6.329415 -1.7566693 -7.110298 -4.573402 -4.6899085 -5.07512 -6.714045 -5.630553
-6.571209 -7.231334 -5.640853 -7.0898266 0.92492115 2.020946 -0.81134516 0.27764842
0.9259452 -1.189058 0.21943133 1.0026948 0.10801562 -1.4945122 0.669539 -0.86552316
-0.13198061 0.15929492 0.72997916 0.041588258 -3.6276906 -1.1656883 0.9068746 0.46234086
-0.97882384 -0.31304976 -1.6047924 -3.280672 0.48779967 -1.6494982 -6.743508 -0.38696852
-6.7665286 -0.96543807 -6.1263547 -1.2744341 -7.9945326 -6.0251613 -4.728046 -0.4587096
-6.0506434 -8.048283 -5.9949327 -8.008249 -6.740407 -0.76809186 -0.53673756 -7.488924
-4.58895 -5.0351577 -4.562214 -5.758349 -5.481433 -5.4789114 -5.1588 -6.432344
-5.8552427 1.0971168 1.8191404 -1.0353557 1.2256944 0.5378899 -0.48298585 1.0046046
0.6477113 1.0502148 -2.2397616 1.2057829 -1.4218575 0.47734782 -0.0029123942 1.1527634
-0.28863773 -3.9553103 -1.0051097 1.093143 0.5302529 -0.8572616 0.56286687 -2.4178023
-3.6193693 0.9800813 -0.6779897 -6.042328 0.28773782 -9.307998 -0.41373837 -8.163911
-1.3060185 -7.424274 -5.858388 -2.9574301 -0.08031155 -6.056716 -6.85215 -6.378839
-7.271328 -7.1850147 -2.0163736 -0.055983216 0.7427642 -1.1023834 -0.24223538 -1.2482419
-0.20726031 -0.3448383 0.5703016 0.018070241 -1.325456 -0.86985505 -0.14773929 -2.1814554
0.19077969 -0.0013431736 -1.0202829 -1.5112735 -0.13899486 -0.0052680983 -1.3739129 -1.2191029
-0.05753106 -0.5226509 -0.7355524 -0.8751501 -0.11606868 -0.6998213 -0.33411616 0.10972732
0.5852081 -0.69692576 -0.53978544 -2.1985407 -0.25716358 -0.4916511 -0.5758239 -1.660937
-2.2718034 -1.7519118 -0.27016807 -0.07682421 -0.47219378 -0.114638716 -0.23574468 0.029558929
-0.90512043 -0.620834 -1.0169139 -0.96234965 -0.5521019 -3.4056754 -2.9625165 -0.34279728
1.0827706 0.7092685 -0.49978554 -0.61874133 0.6001187 1.7820357 -1.3781197 0.0547104
0.15548442 1.3939842 0.017217752 0.6095979 -0.5474415 -1.1943519 -1.7463467 -0.9394236
-0.63076633 -0.0063581425 -0.8520338 -0.24892907 -1.4321682 -1.1217217 0.085830614 -1.3057741
-1.7315266 -0.9527286 -1.6621141 -1.5999377 -1.4091802 -1.2410432 -1.8124557 0.060035326
-0.75784564 -1.9556738 -0.24196899 -0.7095355 -1.6472071 -1.6421311 -1.1549789 -0.17901623
-1.5862542 -2.2503657 -0.86367816 -0.43294463 -1.6954526 0.31061128 -1.6405599 -1.5624841
-0.30617735 -1.3274838 -0.89666134 -1.8136313 -1.8783236 0.27876765 0.101630636 0.059228234
-1.1488856 -1.4810516 0.4887029 -0.94049925 0.5028722 -1.4923154 -1.0632775 -0.42938316
-0.651931 -0.62907785 -0.4741442 -0.35677576 -0.61287355 -2.5104573 -0.75255895 -0.11344929
0.15496157 -1.1692709 0.9095982 -2.6997492 -1.1932297 -0.5058644 -0.48160172 -0.84287065
-0.7999176 0.92809826 -0.60424393 -0.46609646 -1.6678255 -0.4082847 0.35162005 -1.066954
0.086830325 0.42406264 0.02249706 -0.3623815 0.6953928 -1.8182137 -0.5810625 -1.9463263

exp_avg f4 [53, 53]
00000000: 3e42 3635 630b 3d38 3ef1 a634 fbcc 8336
00000010: 2108 6a36 1e96 1f36 e335 f734 15a8 b635
00000020: 701c 0f35 e1e8 9334 ac61 b535 2065 aa34
00000030: 17d9 0c3a 9edf 66b9 de3f 1539 54f1 8eb9
00000040: 9009 a9ba a8e0 abb9 1b70 3f39 b228 c7b9
00000050: aa14 9eb7 35cd b238 b162 063a 11ab 0ab9
00000060: 7ec9 6439 c462 8639 6fd1 22b9 86fa 9539
00000070: 3f53 2937 c837 dc38 33ea a7b9 db74 6439
00000080: 2886 1539 f5ba 33ba bc22 a038 06a5 6f37
00000090: caa3 093a 1b43 8f38 21eb f034 5a5e b837
000000a0: 936f eb34 24ba 1739 b34b 5f35 9295 da38
000000b0: c2e4 0934 8613 7735 21c3 6136 bfe2 ac38
000000c0: f9db 7035 51ad 0234 aea8 7e35 d803 0834
000000d0: c6aa f134 d017 24b8 f0ba 54b9 5dcb d135
000000e0: e7c9 ed37 bf12 9837 a92f f437 f198 1337
000000f0: ae35 4337 cd8e 4337 549c 8637 b288 9636
00000100: 5df2 0537 2b17 1abb 58cd 00bb 0961 09b9
00000110: 0223 d139 58a0 893a 30c9 00ba cacc b83a
00000120: 2673 2dbb 1c2f 4c3a 1107 b638 5d20 3eba
00000130: 8b3e b0b9 e618 bab9 b631 233a 5eea 163a
00000140: d92b fbb9 6561 cfb8 84f6 77b7 f1ec f739
00000150: 444b 633a 19a8 3739 142c ac3a 441b f138
00000160: aabe b637 d561 c73a 8634 7d3a 4ede de36
00000170: 48bb 2aba ae1a 8834 021b 2d3a 43ab 5535
00000180: 10e8 2439 2cd8 df35 98f2 0537 6369 8bb9
00000190: 2987 20ba 2bb3 db36 de7a 4536 10a0 9e36
000001a0: 5a6b 0236 492d 0e36 0400 0000 0400 0080
000001b0: 0400 0080 0400 0000 0400 0000 0400 0000
000001c0: 0400 0000 0400 0000 0400 0000 0400 0000
000001d0: 0400 0000 0400 0000 0400 0000 0400 0000
000001e0: 0400 0000 0400 0000 0400 0000 0400 0000
000001f0: 0400 0000 0400 0000 0400 0000 0400 0000
00000200: 0400 0000 0400 0000 0400 0000 0400 0000
00000210: 0400 0000 0400 0000 0400 0000 0400 0000
00000220: 0400 0000 0400 0000 0400 0000 0400 0000
00000230: 0400 0000 0400 0000 0400 0000 0400 0000
00000240: 0400 0000 0400 0000 0400 0000 0400 0000
00000250: 0400 0000 0400 0000 0400 0000 0400 0000
00000260: 0400 0000 0400 0000 0400 0000 0400 0000
00000270: 0400 0000 0400 0000 0400 0000 0400 0000
00000280: 0400 0000 0400 0000 0400 0000 0400 0000
00000290: 0400 0000 0400 0000 0400 0000 0400 0000
000002a0: 0400 0000 0400 0080 0400 0000 0400 0000
000002b0: 0400 0000 0400 0000 0400 0000 0400 0000
000002c0: 0400 0000 0400 0000 0400 0000 0400 0000
000002d0: 0400 0000 0400 0000 0400 0000 0400 0000
000002e0: 0400 0000 0400 0000 0400 0000 0400 0000
000002f0: 0400 0000 0400 0000 0400 0000 0400 0000
00000300: 0400 0000 0400 0000 0400 0000 0400 0000
00000310: 0400 0000 0400 0000 0400 0000 0400 0000
00000320: 0400 0000 0400 0000 0400 0000 0400 0000
00000330: 0400 0000 0400 0000 0400 0000 0400 0000
00000340: 0400 0000 0400 0000 0400 0000 0400 0000
00000350: 0400 0000 0400 0000 0400 0000 0400 0000
00000360: 0400 0000 0400 0080 0400 0000 0400 0000
00000370: 0400 0000 0400 0000 0400 0000 0400 0000
00000380: 0400 0000 0400 0000 0400 0000 0400 0000
00000390: 0400 0000 0400 0000 0400 0000 0400 0000
000003a0: 0400 0000 0400 0000 0400 0000 0400 0000
000003b0: 0400 0000 0400 0000 0400 0000 0400 0000
000003c0: 0400 0000 0400 0000 0400 0000 0400 0000
000003d0: 0400 0000 0400 0000 0400 0000 0400 0000
000003e0: 0400 0000 0400 0000 0400 0000 0400 0000
000003f0: 0400 0000 0400 0000 0400 0000 0400 0000
6.789668e-07 4.5071716e-05 3.1095436e-07 3.927967e-06 3.4873449e-06 2.3780226e-06 4.6046543e-07 1.3608975e-06
5.3313033e-07 2.7550325e-07 1.3513977e-06 3.1738546e-07 0.0005372925 -0.00022017813 0.0001423354 -0.00027264154
-0.0012896527 -0.00032783044 0.00018256942 -0.00037986558 -1.884469e-05 8.525924e-05 0.00051264005 -0.00013224433
0.00021818836 0.00025632058 -0.00015527544 0.0002860615 1.0092567e-05 0.000105008075 -0.00032027214 0.00021787306
0.00014259724 -0.0006856167 7.635864e-05 1.4283933e-05 0.0005250542 6.831271e-05 4.4874562e-07 2.1978445e-05
4.3853342e-07 0.00014469825 8.318413e-07 0.0001042291 1.2842341e-07 9.204308e-07 3.3641193e-06 8.243834e-05
8.972707e-07 1.2170246e-07 9.4867835e-07 1.2667385e-07 4.5014002e-07 -3.9122824e-05 -0.00020287535 1.56309e-06
2.834662e-05 1.8128541e-05 2.910926e-05 8.797492e-06 1.1635404e-05 1.1656154e-05 1.604684e-05 4.486262e-06
7.983847e-06 -0.0023512344 -0.0019653644 -0.00013101487 0.0003988967 0.0010500057 -0.0004912792 0.0014099118
-0.002646634 0.0007789002 8.6797525e-05 -0.00072527473 -0.00033615934 -0.00035495235 0.0006225364 0.00057569693
-0.0004790712 -9.88867e-05 -1.4779744e-05 0.00047288046 0.0008670578 0.00017514861 0.0013135695 0.00011496854
2.1784876e-05 0.0015211651 0.00096590107 6.6419952e-06 -0.00065128924 2.5351386e-07 0.0006603451 7.95979e-07
0.00015726709 1.6677709e-06 7.983901e-06 -0.00026590665 -0.0006123656 6.5475665e-06 2.9426806e-06 4.7274007e-06
1.9433996e-06 2.1186008e-06 6e-45 -6e-45 -6e-45 6e-45 6e-45 6e-45
6e-45 6e-45 6e-45 6e-45 6e-45 6e-45 6e-45 6e-45
6e-45 6e-45 6e-45 6e-45 6e-45 6e-45 6e-45 6e-45
6e-45 6e-45 6e-45 6e-45 6e-45 6e-45 6e-45 6e-45
6e-45 6e-45 6e-45 6e-45 6e-45 6e-45 6e-45 6e-45
6e-45 6e-45 6e-45 6e-45 6e-45 6e-45 6e-45 6e-45
6e-45 6e-45 6e-45 6e-45 6e-45 6e-45 6e-45 6e-45
6e-45 6e-45 6e-45 6e-45 6e-45 6e-45 6e-45 6e-45
6e-45 -6e-45 6e-45 6e-45 6e-45 6e-45 6e-45 6e-45
6e-45 6e-45 6e-45 6e-45 6e-45 6e-45 6e-45 6e-45
6e-45 6e-45 6e-45 6e-45 6e-45 6e-45 6e-45 6e-45
6e-45 6e-45 6e-45 6e-45 6e-45 6e-45 6e-45 6e-45
6e-45 6e-45 6e-45 6e-45 6e-45 6e-45 6e-45 6e-45
6e-45 6e-45 6e-45 6e-45 6e-45 6e-45 6e-45 6e-45
6e-45 -6e-45 6e-45 6e-45 6e-45 6e-45 6e-45 6e-45
6e-45 6e-45 6e-45 6e-45 6e-45 6e-45 6e-45 6e-45
6e-45 6e-45 6e-45 6e-45 6e-45 6e-45 6e-45 6e-45
6e-45 6e-45 6e-45 6e-45 6e-45 6e-45 6e-45 6e-45
6e-45 6e-45 6e-45 6e-45 6e-45 6e-45 6e-45 6e-45

exp_avg_sq f4 [53, 53]
00000000: d788 252c ad32 4934 96bf 062b a43d 142f
00000010: 9a28 b631 78c6 662e 39a9 4d31 1370 e831
00000020: f651 ca2b 4373 d22a 428b 432d 7d84 0c2b
00000030: e545 5136 8129 1137 3b78 3a35 147f fc35
00000040: fb23 6536 29e7 0935 1799 e135 5c5c 7636
00000050: 2b5d e935 4e7b 9434 64e2 3e36 dcaf 2535
00000060: f374 a835 9d1a db35 e0f1 4036 c20a c235
00000070: b943 5f32 5650 ce34 7430 5b36 8abd 1736
00000080: cde7 0a35 74eb 9035 c334 8234 9603 6a32
00000090: 7212 1f36 24e2 7b34 ba67 8e2b 04b1 7135
000000a0: e8df 872b 4f1b 0135 0b46 7a2c 0657 ad34
000000b0: 57ff af29 bfc0 992c a340 072f 1d6f 6935
000000c0: f4fb 912c 5b8e 9d29 cb80 a32c 2a18 ab29
000000d0: fc4e 8f2b 26b5 ad36 a526 ea36 bd0c 522d
000000e0: 2e4f a032 6325 a732 ba04 cd32 7ddb 5e31
000000f0: 2938 5230 d494 9b30 297c 4531 df86 eb2f
00000100: 9058 5f31 843f ed37 4dfc 6d38 a539 7a36
00000110: 76fb 1438 1c3a 9337 58bf df36 2a0a eb37
00000120: ee7f a337 5684 f237 cf25 8c35 a3a9 1338
00000130: fb06 2336 c1d0 8d37 ca4d 2237 57ea 0238
00000140: edbe 0537 4c43 0e34 a29a 7e36 dabe 0438
00000150: dc1e 9a37 7436 9736 1209 9837 67bb 5835
00000160: 90f9 7a34 1cec e837 293d ad36 8742 6d2f
00000170: 7e51 7337 a639 992a 2a2c ec36 6b7f 452c
00000180: a1f4 4036 f932 5e2d 6440 a72f a409 0135
00000190: 03c3 2b37 b291 5f2f 4f98 2f32 c4f7 1931
000001a0: a49b 972d 43ac b42d 20bd 0d2c 7c4c e232
000001b0: a7ef 5733 e197 652d 9b16 a62e 6a68 2a2d
000001c0: f52a 102f b0ae 862e 8860 da2f 9056 0d2f
000001d0: eff5 122d 7352 b82d 6a4d e52f 7753 ca2b
000001e0: 8123 492f c6de 5e31 968d 872d 5ce0 c62c
000001f0: 0616 cd2e e1c1 062f a8a5 032d 129d 342d
00000200: c138 f22e a35f 3b2e 4182 f22d 8e56 b62d
00000210: 9deb d62e 576f 022e 03aa 892e c071 2a2f
00000220: 5e21 e12f 6937 032e dac4 1531 5363 c32b
00000230: 5419 a12e b690 472e a909 282e ce7d 922c
00000240: 0e39 a82b af4b 732c 2ce0 9c2e 2adc e82e
00000250: 40a8 4f2e 8627 f22f 2b4e a82e e9b1 102f
00000260: c382 ab2d c346 192e f37d 882d fd95 982d
00000270: bc61 302e 1fa7 042a b713 a42a 771a e12c
00000280: ddbe a131 3cbe ea31 153c a42c bb04 882d
00000290: 56d0 da2f 359d 0c30 9e5a d22f 0f61 fd2d
000002a0: 2045 2c31 3588 7631 1966 3c2f 20a4 442e
000002b0: 0a3c 942c 3f4b 9e2b 4c29 cd2a 872f 052c
000002c0: 9f59 812c 05ae 5f2d 9632 1f2c 3663 9c2f
000002d0: 44d3 422b d899 b72b c59b de2d 4d2f 7c2b
000002e0: 8376 d32a 5b9e 012c 60a9 f32a a752 0a2b
000002f0: b62f 4c2b 7ce7 8f2b 8f41 b32a d412 802d
00000300: 8cf2 402c bacd 852a 0b46 0a2d 1ff2 542c
00000310: 9c31 fb2a 0ccf fd2a 8d8d ab2b 4b3c 1d2d
00000320: 093e 0e2b b098 122a 4775 1b2c a243 bb2c
00000330: 6aa0 e32a 039c d52d f39f fe2a 9e50 152b
00000340: c492 f22c 913e 712b ed55 112c 39d3 b22a
00000350: 5d9f 1e2a fc25 ff2f 4033 0a2e a25e f731
00000360: 6f3f e62f 02a1 5131 7e9b 0731 a716 dd2f
00000370: 1fe2 3331 117c ae2a 71d4 6e2b 0b21 3f2c
00000380: 5ca9 f22b 9f41 fe2b 4a6f 2e2c 3b7d 5e2c
00000390: 1468 032c 6858 2e29 a197 c52b bb28 b62c
000003a0: 2e8e 1d2d cbbf 282b cae2 372e f6cc ec28
000003b0: aab0 202b 057f 232c 88cc 2b2c 8250 a42b
000003c0: 5e61 b32b fff6 3e2e 24bd 052c 0453 312c
000003d0: 59d7 732a ed8a 472c 5168 6b2d 57f5 4f2b
000003e0: 7cc5 b32d 9177 882d d56f f02c 4f26 5b2c
000003f0: 067b ed2d 1758 332a fd38 0c2c 680b 0a2a
2.3523872e-12 1.873802e-07 4.787224e-13 1.3482421e-10 5.301513e-09 5.247222e-11 2.9927618e-09 6.76483e-09
1.4375712e-12 3.7383473e-13 1.1115388e-11 4.9921856e-13 3.118411e-06 8.652337e-06 6.946536e-07 1.8812448e-06
3.4144603e-06 5.137286e-07 1.6808361e-06 3.6710617e-06 1.7386968e-06 2.7656864e-07 2.8443983e-06 6.17232e-07
1.2551012e-06 1.6324517e-06 2.875102e-06 1.4457257e-06 1.2995707e-08 3.8428942e-07 3.2661746e-06 2.261108e-06
5.174632e-07 1.0797362e-06 2.4252776e-07 1.3621408e-08 2.3703583e-06 2.3458466e-07 1.0118497e-12 9.003709e-07
9.654473e-13 4.8095984e-07 3.5566018e-12 3.228708e-07 7.8158556e-14 4.3699207e-12 1.2301142e-10 8.6960955e-07
4.1491203e-12 6.996895e-14 4.6470375e-12 7.598117e-14 1.0182684e-12 5.17689e-06 6.9782423e-06 1.1939946e-11
1.8662458e-08 1.945836e-08 2.386729e-08 3.2430016e-09 7.6477363e-10 1.1320034e-09 2.873785e-09 4.2842083e-10
3.2501113e-09 2.8282178e-05 5.6740177e-05 3.7286457e-06 3.552014e-05 1.7550825e-05 6.6681932e-06 2.8018916e-05
1.9490686e-05 2.8910272e-05 1.0441817e-06 3.5205518e-05 2.4292956e-06 1.6905718e-05 9.674064e-06 3.121266e-05
7.971871e-06 1.3249263e-07 3.7938958e-06 3.1648997e-05 1.83726e-05 4.50649e-06 1.8124036e-05 8.0738977e-07
2.3373855e-07 2.7766502e-05 5.1629218e-06 2.157866e-10 1.4502903e-05 2.721826e-13 7.0384895e-06 2.8066115e-12
2.8752622e-06 1.2630557e-11 3.0422875e-10 4.8070274e-07 1.0237799e-05 2.0333493e-10 1.0220972e-08 2.2405269e-09
1.723583e-11 2.054013e-11 2.014229e-12 2.6344644e-08 5.027655e-08 1.3050867e-11 7.5528216e-11 9.686566e-12
1.3111985e-10 6.124645e-11 3.9722559e-10 1.2854628e-10 8.353747e-12 2.0954993e-11 4.1709863e-10 1.4376129e-12
1.8293457e-10 3.2431884e-09 1.54106e-11 5.6524074e-12 9.326233e-11 1.2256109e-10 7.483271e-12 1.0266692e-11
1.10149674e-10 4.260382e-11 2.7570059e-11 2.0729442e-11 9.7734466e-11 2.9657467e-11 6.260239e-11 1.5501822e-10
4.095097e-10 2.9835166e-11 2.179425e-09 1.3883151e-12 7.3259315e-11 4.537589e-11 3.8207357e-11 4.1635367e-12
1.1952954e-12 3.457439e-12 7.1338796e-11 1.05892475e-10 4.7215787e-11 4.4047627e-10 7.653641e-11 1.315993e-10
1.9498519e-11 3.485102e-11 1.5517343e-11 1.7347008e-11 4.0104572e-11 1.1781937e-13 2.9145932e-13 6.397823e-12
4.7074153e-09 6.8319235e-09 4.667831e-12 1.546351e-11 3.9802e-10 5.115511e-10 3.8263165e-10 2.8805873e-11
2.5068587e-09 3.5875136e-09 1.7134773e-10 4.4711013e-11 4.2130787e-12 1.124746e-12 3.644397e-13 1.892682e-12
3.6763505e-12 1.27147225e-11 2.262334e-12 2.8446728e-10 6.9215835e-13 1.3045632e-12 2.5307654e-11 8.959403e-13
3.7563363e-13 1.8419908e-12 4.3283e-13 4.914215e-13 7.254157e-13 1.0225011e-12 3.1842278e-13 1.4560277e-11
2.7419482e-12 2.3768297e-13 7.8599445e-12 3.0261416e-12 4.462098e-13 4.5085496e-13 1.2189569e-12 8.9378045e-12
5.0534625e-13 1.3020379e-13 2.2091927e-12 5.3223684e-12 4.043461e-13 2.428458e-11 4.523045e-13 5.304731e-13
6.894348e-12 8.570723e-13 2.0653438e-12 3.1765717e-13 1.4088509e-13 4.641122e-10 3.1423086e-11 7.1994046e-09
4.1881829e-10 3.0505025e-09 1.9733473e-09 4.021576e-10 2.6176463e-09 3.0994697e-13 8.4849407e-13 2.7161075e-12
1.7242141e-12 1.8065999e-12 2.4788665e-12 3.1617614e-12 1.8673995e-12 3.871244e-14 1.4039777e-12 5.177273e-12
8.955987e-12 5.9951756e-13 4.1810812e-11 2.6290151e-14 5.708859e-13 2.3234203e-12 2.44141e-12 1.1675246e-12
1.274574e-12 4.3420375e-11 1.900543e-12 2.5199296e-12 2.165745e-13 2.835672e-12 1.3381366e-11 7.388165e-13
2.0437645e-11 1.5514508e-11 6.833626e-12 3.1143037e-12 2.6998414e-11 1.5928956e-13 1.9926831e-12 1.226082e-13
